e0dcb0ad1c82dc60.pt (torch, 251735 bytes, 6 tensors)

weight f4 [13, 3, 3, 14]
-0.061496526 0.015065737 -0.060900968 0.008874506 0.071833074 0.060761824 0.015371211 -0.07107452
0.056721553 -0.059423648 -0.0016499013 0.04416053 0.06947258 0.02017121 0.077801526 0.019926928
-0.05399326 0.0025857463 0.013119318 -0.06745453 -0.039959352 -0.067594856 -0.07229653 0.03276234
-0.05246594 0.06151949 -0.062166296 0.074014485 0.07311681 0.031806454 0.025489643 -0.022926502
0.08718605 -0.04683619 0.0011367351 -0.05845401 -0.007996835 -0.084276654 0.08727503 0.0388166
0.073895276 0.0245879 0.0008079782 -0.026001796 0.054244474 0.067250356 -0.028050084 -0.011797123
0.027882293 -0.031972077 -0.058766175 -0.06199258 0.05615835 -0.061327107 0.03742273 -0.014668718
-0.05466972 0.023319393 -0.083999634 -0.03892083 -0.05889388 0.027433932 0.07938467 0.04827313
0.07008988 -0.06760879 0.029226929 0.030005142 -0.032684464 -0.029697228 0.0035124198 0.04039727
0.042742208 0.012313306 0.0073142424 0.062313423 -0.040150873 -0.02223429 0.049499616 0.04739949
0.073297724 0.025739565 0.000111699104 -0.0458612 0.03684123 0.010556236 0.053549692 0.027382158
0.057325333 -0.083531134 -0.026687156 -0.07690657 0.08369525 0.049770385 -0.018655002 -0.055372063
-0.07795417 -0.071888596 0.065933645 0.044060126 0.01744859 -0.02184888 0.07228395 -0.06661508
0.055684343 -0.04449592 0.016471684 0.080062255 0.047525316 0.057985365 0.021506906 0.02971302
0.0066016167 0.058355555 -0.024396315 -0.035021473 -0.027896382 0.07251735 0.07573484 -0.073242225
-0.009133324 -0.029575352 0.024637088 0.013786696 0.05324413 0.037240714 -0.07842085 0.05280204
0.0596423 0.07480405 -0.07120959 0.004481718 0.042834446 -0.048431188 -0.07657733 -0.0107759535
0.00089976937 -0.00035148114 -0.025200374 0.0323248 0.08079772 0.06585702 -0.012043431 0.087287724
-0.05490077 -0.05258771 0.054041997 -0.047454145 0.041806787 0.072802424 -0.05631857 0.019388027
0.038966894 0.010771893 0.04755348 0.060829222 -0.02080077 0.047361642 0.057315364 -0.030476343
0.009267554 0.01307945 -0.048915725 -0.0074768364 -0.0742502 -0.012923233 0.04596141 0.065911025
-0.043746084 0.006735228 -0.049502905 -0.05686514 0.056883857 -0.011984527 -0.079390615 0.005684532
0.04155822 -0.036082275 -0.049880944 0.08391471 0.068288 -0.04034554 0.044278443 0.08096357
-0.058557216 -0.025187016 -0.064760715 0.026145078 -0.056722727 0.052933082 0.044159576 0.001357697
0.022431858 0.056037545 0.07269253 0.031782225 0.05831398 0.08182369 -0.071980946 0.040061817
-0.082952194 -0.03219055 0.047203913 -0.05272849 -0.0881826 0.0016286075 -0.023017518 -0.088790394
0.08183625 -0.086613484 0.05204925 0.006065257 0.06136246 0.0766543 0.044009626 -0.06969104
0.06578106 0.006622255 -0.057693213 -0.03284335 0.002128452 -0.044101644 0.05844353 -0.026471391
-0.021639638 0.014705665 0.08589515 0.054472804 0.062163204 0.07137126 -0.031288818 -0.044236857
-0.042723443 0.0008891523 -0.023838714 0.03826958 -0.08505215 -0.08265469 -0.059775054 0.045786873
-0.046915732 0.01015465 -0.072629265 -0.020554826 0.056174025 0.04320228 0.08257063 -0.08350588
0.04572141 -0.08894626 -0.07474685 0.053003237 0.07157697 -0.047015242 0.0003117919 -0.06328011
00000000: c8e3 7bbd 48d6 763c 4b73 79bd 6066 113c
00000010: 381d 933d 64e1 783d 88d7 7b3c 858f 91bd
00000020: dc54 683d 3666 73bd 8041 d8ba ace1 343d
00000030: a447 8e3d 183e a53c 6856 9f3d cc3d a33c
00000040: 0928 5dbd a075 293b 68f2 563c 9a25 8abd
00000050: 6bac 23bd 2c6f 8abd 3410 94bd ce31 063d
00000060: 87e6 56bd dcfb 7b3d 16a2 7ebd e894 973d
00000070: 44be 953d 7c47 023d a8cf d03c 5cd0 bbbc
00000080: 9a8e b23d 4ed7 3fbd 80fe 943a 796d 6fbd
00000090: 2805 03bc 3d99 acbd 40bd b23d 28fe 1e3d
000000a0: 6856 973d 906c c93c 80ce 533a b801 d5bc
000000b0: 742f 5e3d 8eba 893d 4ac9 e5bc b848 41bc
000000c0: 6869 e43c 27f5 02bd cdb4 70bd eeeb 7dbd
000000d0: 4c06 663d 2232 7bbd 9448 193d 1055 70bc
000000e0: 5bed 5fbd 5008 bf3c 0008 acbd 736b 1fbd
000000f0: b63a 71bd 20bd e03c 6e94 a23d 0cba 453d
00000100: 488b 8f3d 7a76 8abd 506d ef3c 58cd f53c
00000110: 25e0 05bd 9a47 f3bc a030 663b 9c77 253d
00000120: 7412 2f3d c0bd 493c 50ac ef3b 5c3c 7f3d
00000130: 3e75 24bd b024 b6bc 1cc0 4a3d f825 423d
00000140: 1e1d 963d c8db d23c 0040 ea38 f4d8 3bbd
00000150: d4e6 163d 10f4 2c3c ec56 5b3d 8c50 e03c
00000160: f8cd 6a3d 5f12 abbd 069f dabc 3181 9dbd
00000170: 6a68 ab3d 08dc 4b3d 60d2 98bc d1cd 62bd
00000180: 70a6 9fbd 543a 93bd 3808 873d 6478 343d
00000190: 58f0 8e3c 6cfc b2bc 9c09 943d 7d6d 88bd
000001a0: 4415 643d 5b41 36bd a0ef 863c aef7 a33d
000001b0: e8a9 423d 1082 6d3d 402f b03c b868 f33c
000001c0: 6052 d83b 3c06 6f3d c8da c7bc ad72 0fbd
000001d0: f486 e4bc fa83 943d de1a 9b3d 0500 96bd
000001e0: f0a3 15bc 0248 f2bc b8d3 c93c 98e1 613c
000001f0: 8416 5a3d b889 183d 1c9b a0bd f446 583d
00000200: 7c4b 743d de32 993d 55d6 91bd 60db 923b
00000210: 2c73 2f3d c85f 46bd 93d4 9cbd a08d 30bc
00000220: 80de 6b3a 0047 b8b9 0471 cebc 0267 043d
00000230: 4679 a53d 0ce0 863d d051 45bc e8c3 b23d
00000240: a1df 60bd 3666 57bd 245b 5d3d 475f 42bd
00000250: 983d 2b3d 7019 953d 4dae 66bd a4d3 9e3c
00000260: c09b 1f3d 987c 303c 70c7 423d 1028 793d
00000270: 6066 aabc 48fe 413d 84c3 6a3d 86a9 f9bc
00000280: f0d6 173c 304b 563c db5b 48bd 4000 f5bb
00000290: 7d10 98bd f8bb 53bc 0842 3c3d 5cfc 863d
000002a0: 182f 33bd 30b3 dc3b 8fc3 4abd 6ceb 68bd
000002b0: 0cff 683d c05a 44bc 8c97 a2bd 5045 ba3b
000002c0: f438 2a3d 02cb 13bd f64f 4cbd 7adb ab3d
000002d0: 94da 8b3d 5d41 25bd 505d 353d 3ad0 a53d
000002e0: b1d9 6fbd 0055 cebc 44a1 84bd 342e d63c
000002f0: 1756 68bd 5cd0 583d ace0 343d c0f4 b13a
00000300: 04c3 b73c a087 653d d2df 943d 142e 023d
00000310: a4da 6e3d 2e93 a73d bf6a 93bd dc17 243d
00000320: d7e2 a9bd 3dda 03bd e458 413d d4f9 57bd
00000330: 1499 b4bd 0077 d53a 3c8f bcbc bdd7 b5bd
00000340: c499 a73d 6962 b1bd 9831 553d 10bf c63b
00000350: 3457 7b3d eefc 9c3d 7043 343d 2dba 8ebd
00000360: 38b8 863d 80ff d83b b84f 6cbd c086 06bd
00000370: 807d 0b3b eda3 34bd 7c62 6f3d 88da d8bc
00000380: 9c45 b1bc 08f0 703c cce9 af3d e01e 5f3d
00000390: d89e 7e3d 182b 923d b428 00bd b531 35bd
000003a0: c7fe 2ebd 0016 693a 6849 c3bc 90c0 1c3d
000003b0: d22f aebd dd46 a9bd b0d6 74bd 048b 3b3d
000003c0: b62a 40bd b05f 263c a7be 94bd 9862 a8bc
000003d0: bc16 663d e0f4 303d ca1a a93d 2105 abbd
000003e0: 6046 3b3d 7529 b6bd e014 99bd ec19 593d
000003f0: f296 923d 0e93 40bd 0078 a339 0199 81bd

bias f4 [13]
-0.015079282 -0.016680166 -0.00078073144 0.015089951 -0.0021653995 -0.0056710914 -0.07425704 -0.07398052
0.026717097 -0.05041231 0.06596653 0.05048354 0.058269456
00000000: 180f 77bc d8a4 88bc 00aa 4cba d83b 773c
00000010: 60e9 0dbb 90d4 b9bb 1314 98bd 1983 97bd
00000020: d0dd da3c 237d 4ebd 7619 873d d4c7 4e3d
00000030: f4ab 6e3d

weight f4 [57, 13, 2, 2]
0.025741309 -0.13693966 0.052749217 -0.11438135 -0.07605879 0.035419524 -0.08495167 -0.044807345
0.119641915 -0.017896697 -0.09137749 0.02298519 -0.030211478 -0.09291838 0.03863913 -0.1369136
0.018426895 0.13499214 0.08156955 -0.053916104 0.1081993 0.08221884 0.072895974 0.07605784
0.062574446 0.014403105 0.06031668 0.053687662 -0.1177634 -0.06792322 0.06369828 0.068782166
0.08832197 -0.1114248 -0.10191207 -0.07205586 -0.12537377 0.0069865435 -0.014141381 -0.07919793
-0.011945963 -0.02283261 0.030239403 -0.039025962 0.04390745 -0.09615389 -0.052072905 -0.07522465
0.11998318 -0.02974017 -0.07147286 0.1310391 0.0570022 -0.06627119 -0.081952274 -0.06825165
0.04539746 -0.029253386 -0.09621081 0.124728724 0.042715818 0.03070061 0.11274643 0.10901493
0.05242841 -0.035606176 -0.08680849 0.07476191 -0.019687802 0.005747482 -0.026803076 0.10377376
0.029659629 0.101408795 -0.039253667 0.099347815 -0.04891281 -0.10901271 -0.0065517873 -0.002365619
0.10850546 -0.027200826 -0.049927816 0.119490966 0.093712494 -0.097055085 -0.071209714 -0.056683816
-0.12331487 0.06859627 0.06508048 0.08596516 -0.05861891 0.024850234 0.086574316 0.09831728
0.013900071 -0.11428054 0.052273005 0.033434883 -0.11331536 -0.008307457 0.040252373 -0.07328359
0.06434648 -0.028773338 0.10549697 0.064999 0.050159946 0.01812996 -0.0493201 -0.018997267
0.107324734 0.087389216 0.12985887 0.0392254 0.06642121 -0.05990672 0.036047786 -0.0039298683
0.12732653 -0.13390575 -0.08589476 -0.122983575 0.09715599 -0.035284042 -0.0701827 0.13121201
-0.06927186 -0.014529474 -0.09526631 -0.055354513 -0.002629742 -0.019028217 0.030087873 -0.10317529
0.0877285 0.0829657 0.11978133 -0.059259005 0.016761988 -0.056715503 -0.03554061 0.012465075
-0.03289865 -0.035462797 0.008566186 0.10981697 0.009972602 -0.07941735 -0.10369178 0.0067175776
0.03910823 -0.01255168 -0.07888475 0.043575555 0.019694105 0.08160548 0.09247929 -0.090598516
0.08003649 0.048487037 0.014496639 0.113033876 0.088294834 -0.08802253 0.06148696 0.09554407
-0.038186267 0.029649377 0.13813572 0.13089766 -0.123225294 0.06846742 0.104543075 -0.10848129
-0.09051235 0.13167687 -0.04207068 -0.03963703 0.09667799 0.048533082 0.13385253 -0.104599364
-0.0021108985 0.11673735 0.015469909 -0.10416862 0.087862015 0.105826706 -0.084888935 0.11248271
0.052299276 -0.11628105 -0.074782096 0.0081831515 -0.0735085 0.012757897 -0.13096046 -0.031611286
-0.13459614 0.007968217 0.025379613 -0.081431895 -0.017708518 -0.045453206 0.090517655 0.011891961
-0.109710395 -0.123809524 0.033643097 -0.09363536 0.1010136 0.0656638 -0.036578394 0.1314101
-0.071583726 -0.039591998 0.118687674 -0.109354705 0.048692122 0.047341272 0.08628802 0.08870262
0.07143493 0.084285185 -0.07310147 0.014959559 0.11501069 -0.02011808 -0.13258976 0.08880958
0.07065 0.014549404 -0.005721286 0.033637956 -0.09997383 -0.13059935 -0.12088781 -0.008764178
0.108307675 0.058505565 -0.08861507 -0.12746975 -0.008389354 -0.13534263 -0.120971836 -0.046217598
0.06378572 -0.022133633 0.066270605 -0.023667127 -0.11107496 0.039908424 0.12857683 -0.061062768
00000000: 70df d23c e939 0cbe 900f 583d c540 eabd
00000010: b6c4 9bbd 1014 113d 24fb adbd e887 37bd
00000020: d206 f53d 189c 92bc 1f24 bbbd 704b bc3c
00000030: 107e f7bc fe4b bebd 1044 1e3d 1433 0cbe
00000040: 00f4 963c 613b 0a3e f00d a73d 22d7 5cbd
00000050: 9897 dd3d 5a62 a83d 7c4a 953d 36c4 9b3d
00000060: 0827 803d 00fb 6b3c a00e 773d 98e7 5b3d
00000070: f02d f1bd 541b 8bbd 3e74 823d aadd 8c3d
00000080: 26e2 b43d af32 e4bd 46b7 d0bd 0692 93bd
00000090: fb61 00be 60ef e43b 40b1 67bc 8632 a2bd
000000a0: 00b9 43bc 740b bbbc a0b8 f73c b0d9 1fbd
000000b0: 4cd8 333d 55ec c4bd 664a 55bd 620f 9abd
000000c0: beb9 f53d a8a1 f3bc 5d60 92bd 1d2f 063e
000000d0: 247b 693d 31b9 87bd 98d6 a7bd 85c7 8bbd
000000e0: b0f2 393d cca4 efbc 2c0a c5bd c671 ff3d
000000f0: c8f6 2e3d d87f fb3c 9ae7 e63d 3843 df3d
00000100: 2cbf 563d c8d7 11bd a6c8 b1bd c61c 993d
00000110: 5048 a1bc 6055 bc3b 2092 dbbc 5687 d43d
00000120: c0f8 f23c 6aaf cf3d 74c8 20bd de76 cb3d
00000130: cc58 48bd 0e42 dfbd 60b0 d6bb 8008 1bbb
00000140: 1c38 de3d 44d4 debc 1c81 4cbd aeb7 f43d
00000150: 56ec bf3d d1c4 c6bd 66d6 91bd 4a2d 68bd
00000160: 828c fcbd 347c 8c3d ea48 853d 800e b03d
00000170: 621a 70bd b892 cb3c e04d b13d 925a c93d
00000180: 20bd 633c ea0b eabd 381c 563d 04f3 083d
00000190: e211 e8bd 001c 08bc acdf 243d b515 96bd
000001a0: 16c8 833d 10b6 ebbc cc0e d83d 321e 853d
000001b0: 8474 4d3d 4885 943c e003 4abd 28a0 9bbc
000001c0: 12cd db3d 1ef9 b23d b9f9 043e d0aa 203d
000001d0: d807 883d c060 75bd d8a6 133d 20c6 80bb
000001e0: e361 023e 971e 09be 98e9 afbd d0de fbbd
000001f0: b8f9 c63d 0086 10bd f3bb 8fbd 715c 063e
00000200: 68de 8dbd 080d 6ebc fc1a c3bd 6abb 62bd
00000210: c057 2cbb 10e1 9bbc d87a f63c 914d d3bd
00000220: 00ab b33d ece9 a93d ea4f f53d 92b9 72bd
00000230: 7050 893c 844e 68bd 0893 11bd 503a 4c3c
00000240: bcc0 06bd 7041 11bd 3059 0c3c b8e7 e03d
00000250: 2064 233c 90a5 a2bd 5b5c d4bd 201f dc3b
00000260: f42f 203d 90a5 4dbc 548e a1bd 487c 323d
00000270: 8855 a13c c620 a73d c865 bd3d b78b b9bd
00000280: 2cea a33d 589a 463d 5083 6d3c 4e7e e73d
00000290: ecd3 b43d 2845 b4bd c0d9 7b3d 9cac c33d
000002a0: 3469 1cbd 40e3 f23c 7373 0d3e 090a 063e
000002b0: 8b5d fcbd a638 8c3d ae1a d63d 702b debd
000002c0: 8a5e b9bd 4dd6 063e 4e52 2cbd 705a 22bd
000002d0: 1cff c53d a0ca 463d a310 093e 3138 d6bd
000002e0: 0057 0abb fe13 ef3d 8075 7d3c 5c56 d5bd
000002f0: 00f1 b33d acbb d83d 40da adbd 565d e63d
00000300: c437 563d c224 eebd 5b27 99bd a012 063c
00000310: a08b 96bd 8006 513c 801a 06be d67a 01bd
00000320: 92d3 09be 208d 023c e8e8 cf3c c4c5 a6bd
00000330: 7411 91bc 242d 3abd 5261 b93d 80d6 423c
00000340: d8af e0bd d98f fdbd 58cd 093d e5c3 bfbd
00000350: 38e0 ce3d be7a 863d 3ad3 15bd 5f90 063e
00000360: 7d9a 92bd 382b 22bd 8612 f33d 5cf5 dfbd
00000370: 6471 473d ece8 413d c6b7 b03d b8a9 b53d
00000380: 7a4c 923d b69d ac3d 39b6 95bd f018 753c
00000390: ba8a eb3d acce a4bc 9cc5 07be cce1 b53d
000003a0: f2b0 903d a060 6e3c a079 bbbb f4c7 093d
000003b0: 14bf ccbd d6bb 05be 0794 f7bd a097 0fbc
000003c0: 6ad0 dd3d 88a3 6f3d d17b b5bd 6e87 02be
000003d0: 8073 09bc 4297 0abe 15c0 f7bd aa4e 3dbd
000003e0: 16a2 823d 9851 b5bc e2b8 873d 90e1 c1bc
000003f0: 457b e3bd 0477 233d a5a9 033e f41c 7abd

bias f4 [57]
-0.10863242 0.11800484 -0.076627135 0.051213622 0.07660237 0.106439784 -0.08740896 -0.10579422
-0.085300684 0.059322223 -0.04062865 -0.04031065 -0.07750768 0.13291155 -0.0326865 0.032449782
-0.029075295 -0.0563908 -0.03314507 -0.046913356 0.08501305 -0.0991302 0.0530902 -0.062250964
0.028556108 0.033655703 -0.050392993 0.019228145 -0.08569814 -0.10397893 0.012700081 -0.007867143
-0.009889737 0.0027719587 -0.08555103 -0.13833767 0.06463501 -0.1058044 -0.12530297 0.12926523
-0.0036499202 0.028379187 0.101306096 -0.12186742 -0.12203239 -0.11606869 -0.037541613 -0.11517581
0.120561495 -0.03902003 -0.06070558 0.12538739 0.08181974 0.033395648 -0.006975293 -0.06943597
0.13545595
00000000: ad7a debd 86ac f13d b0ee 9cbd 60c5 513d
00000010: b4e1 9c3d 1afd d93d 7803 b3bd a4aa d8bd
00000020: 20b2 aebd dcfb 723d 3a6a 26bd c81c 25bd
00000030: 59bc 9ebd f719 083e 48e2 05bd 10ea 043d
00000040: 502f eebc 0afa 66bd 20c3 07bd 3828 40bd
00000050: 521b ae3d c604 cbbd 1c75 593d defa 7ebd
00000060: 80ee e93c 90da 093d e268 4ebd 5884 9d3c
00000070: 8282 afbd e8f2 d4bd 0014 503c 30e5 00bc
00000080: 9008 22bc c0a9 353b 6135 afbd 64a8 0dbe
00000090: 5c5f 843d faaf d8bd 6c4f 00be 1b5e 043e
000000a0: 8033 6fbb 787b e83c 9279 cf3d a095 f9bd
000000b0: 1eec f9bd 6cb5 edbd 3cc5 19bd 4ce1 ebbd
000000c0: f2e8 f63d 78d3 1fbd 6aa6 78bd 8d65 003e
000000d0: 1c91 a73d e0c9 083d 0091 e4bb 7234 8ebd
000000e0: f7b4 0a3e

weight f4 [250, 57, 2, 2]
0.054808825 0.02364897 0.06437215 5.413592e-05 -0.017706204 0.024244338 0.00054777414 -0.03719934
0.012672782 0.017011985 -0.022861108 0.023451261 -0.045756426 -0.043864578 -0.040703714 -0.039130203
0.008709073 0.023249418 -0.025727853 0.047917426 -0.0219273 -0.046343498 -0.0015356913 -0.0618374
-0.0054368116 0.04283554 -0.03273514 0.06132461 -0.03933275 0.01577723 -0.014332555 -0.02159822
0.06351331 -0.014456123 0.0019661114 0.013649754 -0.046755552 -0.019685645 -0.009310283 -0.02951498
-0.026820663 -0.0057963915 0.0071395785 0.012743108 0.03653924 0.0039026737 0.04346451 -0.03956821
-0.050957616 0.0348486 -0.046833288 0.03342264 0.0055493116 -0.02933865 0.02561453 -0.06174452
-0.003327109 0.030043498 -0.0130537115 0.015899844 0.06092021 -0.012261055 -0.048632834 0.032290123
0.04236857 -0.06578256 -0.040591076 -0.01889316 -0.010967612 0.05092048 0.009371355 -0.05750899
-0.015326776 -0.061668262 0.005598262 0.016816512 -0.053262282 -0.011138853 0.011267416 -0.040321894
0.048493713 0.06396003 0.060111776 0.050504886 -0.011838578 0.0010820851 0.053857982 -0.06448619
-0.058290135 -0.026665121 -0.040318105 -0.032011908 -0.0021574646 -0.047870465 -0.06520122 0.0012473091
-0.009878814 0.053950943 0.0069491863 -0.012309592 0.034841925 -0.064767875 0.033408828 -0.020932876
-0.0023757592 0.056224853 0.02012755 0.054402784 -0.00036513805 0.03735081 -0.0021885484 0.02226007
-0.014116503 -0.057428896 -0.035644665 -0.023565013 -0.010802049 0.004718438 -0.038613833 0.013435423
-0.026357569 0.040809847 0.004419178 0.062178507 -0.04844597 -0.02257593 -0.025028698 0.047599554
-0.03398639 -0.060434442 -0.036021747 -0.009922899 -0.050697006 -0.0550067 0.0034042224 -0.02713225
-0.05830819 -0.030297846 0.03373857 -0.026227675 -0.04865036 0.054970413 0.003963232 -0.0131552
-0.040023714 0.0070096925 0.0074851066 -0.052906115 -0.046339653 0.015820123 -0.01530958 -0.009522285
-0.011075053 0.040143535 0.013005756 0.011649944 -0.06440124 -0.026949674 -0.0125969015 -0.030221544
-0.042479265 0.04484637 0.009382866 -0.046599727 -0.009196766 -0.041581813 -0.06607717 0.016011752
-0.06207561 0.0008870289 -0.038755573 -0.009572361 0.012194112 0.056618877 -0.015102569 -0.018994175
0.06416577 0.049408734 -0.06592066 0.06583357 -0.013175923 0.04707434 -0.025258072 -0.011106119
-0.029078413 0.015295655 0.05603017 0.0065813214 0.028093934 0.057689697 -0.03442752 -0.0037104115
-0.0009944513 -0.017412312 -0.02090815 -0.042856347 -0.002592802 0.032251723 -0.014487427 0.017769255
-0.039620318 0.0154656395 -0.007865887 -0.043271307 0.026437022 0.06433806 -0.009188734 0.0558559
0.04258129 0.019967161 -0.03658869 0.0043362007 -0.042055927 0.06542908 0.05603762 -0.01766444
0.008762382 -0.031324133 -0.032424293 -0.038705572 -0.02812643 0.0029847473 0.031926036 -0.06046722
0.016287796 -0.00041487813 0.017556138 -0.022992108 -0.02492489 0.0053040534 0.019184686 0.0031096041
0.018066078 0.028441377 0.018582277 -0.02020112 0.00877355 0.01975353 -0.06473203 -0.028111652
-0.060676157 0.044404797 0.004062228 -0.031035699 0.06394142 0.045589864 -0.039976723 0.0031381845
0.014405161 0.008869596 0.052162617 0.01180622 -0.04532659 0.046324477 0.05443185 -0.002806507
00000000: 387f 603d 7cbb c13c 8cd5 833d 0010 6338
00000010: 9a0c 91bc 109c c63c 8098 0f3a 565e 18bd
00000020: 80a1 4f3c b85c 8b3c 3847 bbbc dc1c c03c
00000030: 176b 3bbd 58ab 33bd f0b8 26bd fe46 20bd
00000040: 80b0 0e3c 9075 be3c 38c3 d2bc 1045 443d
00000050: e2a0 b3bc aed2 3dbd 4049 c9ba 3749 7dbd
00000060: 4827 b2bb 5274 2f3d 4815 06bd 842f 7b3d
00000070: 611b 21bd 403f 813c 18d3 6abc c0ee b0bc
00000080: 4413 823d 60d9 6cbc e0d9 003b 38a3 5f3c
00000090: c082 3fbd ca43 a1bc 288a 18bc 66c9 f1bc
000000a0: 02b7 dbbc a8ef bdbb 20f3 e93b 78c8 503c
000000b0: 2caa 153d 00c4 7f3b d807 323d 4612 22bd
000000c0: efb8 50bd 68bd 0e3d 43d4 3fbd 2ee6 083d
000000d0: 00d7 b53b 9c57 f0bc 90d5 d13c d2e7 7cbd
000000e0: a00b 5abb c81d f63c 3cdf 55bc 6440 823c
000000f0: 7887 793d 98e2 48bc 3933 47bd a642 043d
00000100: aa8a 2d3d 02b9 86bd d442 26bd d4c5 9abc
00000110: 80b1 33bc fe91 503d 508a 193c 8c8e 6bbd
00000120: 281d 7bbc dc97 7cbd a071 b73b c8c2 893c
00000130: 8d29 5abd bc7f 36bc f89a 383c 9228 25bd
00000140: 58a1 463d 7afd 823d c437 763d 36de 4e3d
00000150: 98f6 41bc c0d4 8d3a 309a 5c3d 5611 84bd
00000160: a3c1 6ebd d070 dabc 9924 25bd eb1e 03bd
00000170: 4064 0dbb d213 44bd 3888 85bd c07c a33a
00000180: c0da 21bc aafb 5c3d 00b6 e33b 2cae 49bc
00000190: 68b6 0e3d 05a5 84bd b2d7 083d 6c7b abbc
000001a0: a0b2 1bbb 084c 663d 88e2 a43c 74d5 5e3d
000001b0: 0070 bfb9 2afd 183d c06d 0fbb c05a b63c
000001c0: e848 67bc 903a 6bbd 2400 12bd 6a0b c1bc
000001d0: 14fb 30bc 209d 9a3b 8a29 1ebd 4020 5c3c
000001e0: d4eb d7bc 3a28 273d c0ce 903b e4ae 7e3d
000001f0: 486f 46bd 28f1 b8bc fc08 cdbc c0f7 423d
00000200: 5035 0bbd 1b8a 77bd 8a8b 13bd a893 22bc
00000210: aaa7 4fbd b54e 61bd 6019 5f3b 7444 debc
00000220: 92d4 6ebd 3033 f8bc 7431 0a3d 6cdb d6bc
00000230: 9a45 47bd a828 613d 00de 813b e888 57bc
00000240: e8ef 23bd 90b1 e53b a045 f53b 15b4 58bd
00000250: a6ce 3dbd 3499 813c 08d5 7abc 5c03 1cbc
00000260: 2474 35bc 8c6d 243d 1816 553c 68df 3e3c
00000270: cce4 83bd 90c5 dcbc 3c63 4ebc 2c93 f7bc
00000280: bdfe 2dbd d4b0 373d 98ba 193c 5bdf 3ebd
00000290: 08ae 16bc b151 2abd 7853 87bd 142b 833c
000002a0: ff42 7ebd 8087 683a 2abe 1ebd 64d5 1cbc
000002b0: d0c9 473c 32e9 673d c470 77bc ac99 9bbc
000002c0: 5869 833d d060 4a3d 6901 87bd c0d3 863d
000002d0: d4df 57bc 06d1 403d 04ea cebc 70f6 35bc
000002e0: da35 eebc a09a 7a3c e47f 653d 20a8 d73b
000002f0: 4025 e63c 084c 6c3d df03 0dbd 602a 73bb
00000300: 4058 82ba 44a4 8ebc 9247 abbc 238a 2fbd
00000310: 00ec 29bb 621a 043d ac5c 6dbc d490 913c
00000320: ea48 22bd 9863 7d3c ecdf 00bc 413d 31bd
00000330: 7492 d83c acc3 833d 588c 16bc 28c9 643d
00000340: b869 2e3d 2c92 a33c 06de 15bd b016 8e3b
00000350: d642 2cbd aeff 853d b487 653d 04b5 90bc
00000360: 1890 0f3c bc4d 00bd 56cf 04bd bc89 1ebd
00000370: 6669 e6bc c09b 433b e0c4 023d 7aac 77bd
00000380: fc6d 853c 0084 d9b9 e4d1 8f3c f259 bcbc
00000390: 482f ccbc a0cd ad3b 3429 9d3c 80ca 4b3b
000003a0: 50ff 933c e4fd e83c dc39 983c d27c a5bc
000003b0: f0be 0f3c 28d2 a13c 3a92 84bd 684a e6bc
000003c0: 9087 78bd cee1 353d 701c 853b 943e febc
000003d0: b8f3 823d 70bc 3a3d a2be 23bd 00aa 4d3b
000003e0: a003 6c3c c851 113c 78a8 553d e06e 413c
000003f0: 60a8 39bd bcbe 3d3d eef3 5e3d 60ed 37bb

bias f4 [250]
0.03386446 -0.009507377 0.014611602 0.001718089 -0.035269834 0.06086962 -0.022393618 0.048148938
0.031275734 0.015487723 -0.014016114 -0.048097685 0.03205625 -0.016038619 0.049976848 0.030154869
-0.045681827 0.051812097 -0.004101649 0.04446329 0.005612403 -0.034154076 -0.06187681 -0.045624003
-0.060665697 -0.05457014 0.0016946271 0.026129328 -0.037199274 -0.024476193 0.053104453 0.059353396
0.028859615 0.045935735 0.06205809 -0.04696809 0.014410317 0.05291103 -0.0058796406 -0.028301269
-0.05210495 -0.015189413 -0.0075256824 -0.05690062 -0.02791496 0.055768542 -0.007729888 0.045194283
-0.062273912 0.06550759 0.033547223 -0.013760474 0.04199613 0.041123703 0.00065464526 0.04882317
-0.0645508 0.008112304 -0.0031316802 -0.062481735 0.026632577 0.040414177 -0.017709948 -0.038999267
-0.012900945 -0.042564295 -0.051244453 -0.058946576 0.0054234043 0.059659913 -0.00023745 -0.024084095
0.053118326 -0.032166347 -0.004408937 0.029214434 0.05697204 -0.052245278 0.059040517 0.011317499
-0.054058295 0.022353739 -0.017473023 -0.061248746 0.06101589 -0.019547775 -0.036136158 -0.03804572
0.037161857 -0.040102385 -0.018055256 -0.063759245 -0.008284643 0.056522764 0.018547945 -0.06548173
-0.03757005 -0.011817507 0.010150686 0.057842962 -0.057797655 -0.058497224 0.038859755 0.06264338
-0.024643429 0.062465668 0.04596962 -0.064533405 -0.055407804 0.013991095 0.057154104 0.034107454
-0.0372841 -0.02014108 0.05321089 -0.004450362 -0.040069252 0.05703202 -0.043165535 -0.0053498447
-0.0059587546 0.06576981 -0.04271107 0.041540936 -0.037381552 -0.0552696 -0.04597705 -0.047270156
0.017706156 0.053121835 -0.022446718 -0.010806661 -0.033967607 -0.05674268 -0.002155885 0.052150153
0.064103454 0.03397371 -0.0010742173 0.008454509 0.0070363134 0.008467205 -0.055645037 -0.0048036724
-0.022219963 -0.035742477 0.019235604 -0.021821462 -0.024525046 -0.017192978 -0.05639949 0.00013878196
0.034516506 0.0047395825 0.048115917 -0.020446587 0.01110743 0.02795782 -0.028747454 0.012276575
-0.054183412 -0.059236526 -0.06270462 -0.051528066 -0.019069232 -0.040237144 0.04354249 -0.025405478
-0.045236632 0.011288397 -0.0613145 -0.007377442 -0.0453557 0.02685503 0.023081519 0.044866875
0.005453825 -0.064043485 0.025205113 -0.057569206 -0.023076773 -0.055089075 0.011448748 -0.014878962
-0.006004229 -0.033938445 0.002829127 0.013237067 0.04235784 0.016610153 0.028483808 0.04824844
0.06396544 0.044938415 -0.0024965182 0.055710554 0.05101659 -0.0021484122 -0.042786438 -0.027251191
-0.044568777 0.06072937 -0.047344863 0.02912926 -0.048588023 -0.020930864 -0.032806214 0.046219736
0.049414374 -0.05381619 0.05857289 -0.027251549 0.012554884 0.06111887 0.04659176 0.0011147559
-0.054425754 -0.029264454 0.050801568 -0.011939097 -0.050112687 0.044338547 -0.008931316 0.061646253
-0.026124697 -0.038591452 -0.008436438 -0.016541 0.031558476 -0.015998237 -0.040954996 -0.05143644
0.018232599 0.05946386 0.009193361 0.036554053 -0.041050002 0.045243517 0.017283782 0.018399507
0.036344424 0.025629707 0.019023828 -0.06426417 -0.028518517 -0.041553732 0.048854724 0.025618441
-0.027059712 0.022080675
00000000: 76b5 0a3d d4c4 1bbc 8065 6f3c 8031 e13a
00000010: 1a77 10bd 6c52 793d d272 b7bc d237 453d
00000020: fc1a 003d 38c0 7d3c d8a3 65bc 1402 45bd
00000030: 6a4d 033d 6c63 83bc 86b4 4c3d 5807 f73c
00000040: de1c 3bbd ec38 543d 2067 86bb 241f 363d
00000050: 40e8 b73b 25e5 0bbd 8a72 7dbd 3ce0 3abd
00000060: 987c 78bd f084 5fbd 401e de3a 2c0d d63c
00000070: 445e 18bd 4c82 c8bc 0e84 593d 8c1c 733d
00000080: 006b ec3c 1c27 3c3d a030 7e3d 9d61 40bd
00000090: 4019 6c3c 3cb9 583d 00aa c0bb 10d8 e7bc
000000a0: 006c 55bd 04dd 78bc 009a f6bb a010 69bd
000000b0: eaad e4bc 8e6d 643d 004b fdbb a41d 393d
000000c0: ee12 7fbd d828 863d d068 093d 9c73 61bc
000000d0: 2204 2c3d 5471 283d 809c 2b3a cefa 473d
000000e0: 3633 84bd 78e9 043c e03c 4dbb d9ec 7fbd
000000f0: 902c da3c 5689 253d 7414 91bc b2bd 1fbd
00000100: 7c5e 53bc e657 2ebd b4e5 51bd f771 71bd
00000110: d0b6 b13b f45d 743d 00fc 78b9 024c c5bc
00000120: 9a92 593d dcc0 03bd d878 90bb 1c53 ef3c
00000130: 845b 693d 25ff 55bd 78d4 713d 086d 393c
00000140: 3b6c 5dbd 301f b73c 9623 8fbc f7df 7abd
00000150: cceb 793d a822 a0bc 8203 14bd d4d5 1bbd
00000160: 0837 183d 6642 24bd 9ee8 93bc 3594 82bd
00000170: 50bc 07bc 6a84 673d dcf1 973c 491b 86bd
00000180: 0ee3 19bd 389e 41bc 104f 263c beec 6c3d
00000190: 3cbd 6cbd c99a 6fbd 682b 1f3d 2c4b 803d
000001a0: 04e1 c9bc 00dc 7f3d a44a 3c3d 172a 84bd
000001b0: 4bf3 62bd e83a 653c 6c1a 6a3d 42b4 0b3d
000001c0: 36b7 18bd e8fe a4bc aaf3 593d 58d4 91bb
000001d0: a81f 24bd 689a 693d 58ce 30bd c04d afbb
000001e0: a841 c3bb 52b2 863d cef1 2ebd d426 2a3d
000001f0: 661d 19bd 6062 62bd 6e52 3cbd 5a9e 41bd
00000200: 800c 913c 4896 593d 2ee2 b7bc 6c0e 31bc
00000210: 9e21 0bbd 036b 68bd c049 0dbb 669b 553d
00000220: ac48 833d 0428 0b3d c0cc 8cba c884 0a3c
00000230: e090 e63b 08ba 0a3c 0dec 63bd 2068 9dbb
00000240: a406 b6bc b466 12bd fc93 9d3c ecc2 b2bc
00000250: c0e8 c8bc 4ad8 8cbc 2703 67bd 0086 1139
00000260: 2e61 0d3d 804e 9b3b 3215 453d 9a7f a7bc
00000270: f0fb 353c cc07 e53c c87f ebbc b023 493c
00000280: 6def 5dbd 00a2 72bd 486b 80bd 180f 53bd
00000290: 1437 9cbc b4cf 24bd 9c59 323d 261f d0bc
000002a0: 0c4a 39bd f8f2 383c ea24 7bbd 78be f1bb
000002b0: e6c6 39bd 14ff db3c 7415 bd3c 54c6 373d
000002c0: 00b6 b23b 3b29 83bd f47a ce3c b0cd 6bbd
000002d0: 800b bdbc 15a5 61bd 8893 3b3c e4c6 73bc
000002e0: 20bf c4bb 0a03 0bbd e068 393b 48e0 583c
000002f0: 6a7f 2d3d 0412 883c e056 e93c 28a0 453d
00000300: 5000 833d 5811 383d a09c 23bb c030 643d
00000310: c6f6 503d 60cc 0cbb d540 2fbd e43d dfbc
00000320: c08d 36bd 5cbf 783d b0ec 41bd 7ca0 ee3c
00000330: 3c04 47bd 3477 abbc cf5f 06bd e850 3d3d
00000340: ba66 4a3d 5e6e 5cbd 20ea 6f3d a43e dfbc
00000350: 00b3 4d3c c857 7a3d 00d7 3e3d 001d 923a
00000360: 8aed 5ebd 02bc efbc 4e15 503d 349c 43bc
00000370: f642 4dbd 569c 353d a854 12bc c880 7c3d
00000380: 7603 d6bc 1212 1ebd fc38 0abc fe80 87bc
00000390: 7643 013d bc0e 83bc 6dc0 27bd 04af 52bd
000003a0: 885c 953c 6090 733d c09f 163c b4b9 153d
000003b0: 0c24 28bd 4451 393d b896 8d3c 90ba 963c
000003c0: e4dd 143d 64f5 d13c dcd7 9b3c ef9c 83bd
000003d0: aa9f e9bc 3f34 2abd e41b 483d c4dd d13c
000003e0: 54ac ddbc 88e2 b43c
