fb7dcbc21c63c9c0.pt (torch, 80855 bytes, 6 tensors)

weight f4 [13, 3, 5, 1]
0	0x3d693f78	0.056945294
1	0x3e584dda	0.21123448
2	0xbe6b39b6	-0.22971234
3	0x3cd9d9d0	0.026593119
4	0x3e3725a4	0.17885453
5	0x3e067c6a	0.13133398
6	0x3d9485e0	0.07252097
7	0xbdab0c6a	-0.08351977
8	0xbc70e230	-0.014702365
9	0x3dc4c368	0.09607583
10	0xbe0774c2	-0.13228133
11	0xbc1fdd90	-0.009757414
12	0xbe806105	-0.2507402
13	0xbe2b5cd8	-0.16734636
14	0x3e29961e	0.16561171
15	0x3d391838	0.045189112
16	0x3e045ffa	0.12927237
17	0xbd18ed58	-0.037335724
18	0xbe1ef4db	-0.15523092
19	0xbd0c1c50	-0.03420669
20	0xbdf3f49e	-0.119118914
21	0xbe07f025	-0.13275202
22	0x3e40d624	0.18831688
23	0xbe71741d	-0.2357945
24	0xbcc492b8	-0.023995742
25	0x3e722fa8	0.23650992
26	0x3e58f090	0.21185517
27	0xbdc2bbe6	-0.09508495
28	0xbbe878c0	-0.0070944726
29	0x3e79f9fe	0.2441177
30	0xbda19aac	-0.078908294
31	0xbe1f8d5a	-0.15581265
32	0xbe7e234d	-0.24818154
33	0x3c52ae20	0.012858897
34	0x3e18a614	0.14907104
35	0xbe493482	-0.19648936
36	0xbe1d41a9	-0.15357079
37	0x3e697dc2	0.22801879
38	0xbe795e9c	-0.24352497
39	0xbd00a34c	-0.031405732
40	0x3e1d1fc0	0.15344143
41	0xbd797e0c	-0.060911223
42	0x3df233c0	0.11826277
43	0x3ce2ecb0	0.027700752
44	0x3de31e54	0.11089769
45	0x3d168cd8	0.036755413
46	0x3de32640	0.1109128
47	0xbdd4d324	-0.103918344
48	0xbe0f7697	-0.14010082
49	0x3e6c4e4c	0.23076743
50	0x3e534b58	0.2063421
51	0x3e5d65fc	0.21620935
52	0xbd12ca34	-0.035837367
53	0xbe01eb95	-0.12687524
54	0x3d867f4c	0.06567249
55	0x3e71e976	0.23624215
56	0xbe169112	-0.14703777
57	0x3d644060	0.055725455
58	0x3e6c2746	0.23061857
59	0xbe11da96	-0.1424354
60	0x3c667980	0.014067054
61	0x3e2bebe8	0.1678921
62	0xbd582260	-0.052767158
63	0x3c5fa5e0	0.0136503875
64	0xbe316758	-0.17324579
65	0xbd8df328	-0.06931144
66	0xbc1c16c0	-0.009526908
67	0x3e5f81c6	0.21826848
68	0x3e765796	0.24056849
69	0xbd4ddaf8	-0.050257653
70	0xbdc1643c	-0.09442946
71	0x3d83f4e4	0.064431936
72	0xbccfa928	-0.025349215
73	0x3e10fe08	0.14159405
74	0xbd100158	-0.03515753
75	0xbe025313	-0.12727003
76	0xbda5ee34	-0.08102074
77	0x3e46bf3c	0.19408888
78	0x3d750af8	0.059824914
79	0xbe09a4d8	-0.13441789
80	0xbe539dfa	-0.20665732
81	0x3e6301a2	0.22168592
82	0x3e03ebf2	0.12882975
83	0x3df97908	0.12181288
84	0x3e268ac6	0.16263875
85	0x3df62088	0.120179236
86	0x3e14b12c	0.1452071
87	0xbe812fee	-0.2523188
88	0x3e2b574a	0.16732517
89	0x3cdf4920	0.027256548
90	0xbcb58c60	-0.022161663
91	0x3d48bc38	0.049007624
92	0x3dd673b0	0.104712844
93	0x3e26f73e	0.16305253
94	0xbe7b8061	-0.24560691
95	0xbd409db8	-0.047025412
96	0x3e103ba8	0.14085257
97	0xbd5675ac	-0.052358314
98	0xbe36bfba	-0.17846575
99	0xbde3ad62	-0.111170545
100	0x3e680d46	0.22661313
101	0xbcd4a360	-0.02595681
102	0x3db5ddc8	0.08880192
103	0xbe6ed3bd	-0.23322959
104	0xbca511d0	-0.020150095
105	0xbdb9028e	-0.090336904
106	0x3e3962d4	0.18104106
107	0x3ced8f50	0.028999
108	0xbd5a11a4	-0.05323948
109	0x3e74a62c	0.23891515
110	0x3e25e546	0.16200742
111	0xbd8b0d06	-0.067895934
112	0xbdd59c48	-0.10430199
113	0x3e673f3e	0.22582719
114	0xbe20509e	-0.15655753
115	0x3e204182	0.15649989
116	0x3dd505e4	0.10401514
117	0xbe46fde8	-0.19432795
118	0xbe416f30	-0.18890071
119	0xbe1c3c1d	-0.15257306
120	0x3da37b70	0.07982528
121	0xbdff8f74	-0.124785334
122	0x3cbee7d0	0.023303896
123	0xbd22053c	-0.039555773
124	0x3e0a68c2	0.13516524
125	0xbdb67ee0	-0.08910918
126	0x3e2d07b4	0.1689747
127	0x3e812b41	0.25228313
128	0xbe8368f2	-0.25666004
129	0xbe060206	-0.1308671
130	0x3dd420d8	0.10357827
131	0xbe0f097c	-0.13968462
132	0x3df8a4f8	0.1214084
133	0x3e060c16	0.13090548
134	0xbe15f9b9	-0.14646043
135	0xbe73bc45	-0.23802288
136	0x3e10f410	0.14155602
137	0xbe5dd9b4	-0.21665078
138	0xbe0e6f3e	-0.13909623
139	0xbcf872d8	-0.0303282
140	0xbe4b7976	-0.19870552
141	0xbde40482	-0.11133672
142	0xbde2c6e8	-0.110730946
143	0xbe2a2bb0	-0.16618228
144	0x3c02a080	0.0079728365
145	0xbe713967	-0.23557054
146	0xbe53fbc2	-0.20701507
147	0x3e52e206	0.20594034
148	0x3e445b96	0.19175562
149	0xbb007a80	-0.0019604266
150	0xbe4fe54b	-0.20302312
151	0x3e442cfe	0.19157788
152	0x3ccb84d0	0.024843603
153	0x3e624f60	0.22100592
154	0xbe47f7bd	-0.19528098
155	0xbe3b2c42	-0.18278602
156	0xbdde27e0	-0.10847449
157	0xbe4d62d9	-0.20057239
158	0xbe269972	-0.16269472
159	0xbd87dfd8	-0.06634492
160	0x3e81ab5f	0.25326058
161	0x3d087988	0.033319026
162	0xbe1fd00a	-0.15606704
163	0xbe7a3283	-0.24433331
164	0xbe6a4645	-0.22878368
165	0x3b0e2f80	0.0021695793
166	0xbe25c216	-0.16187319
167	0xbddf83f4	-0.1091384
168	0xbdbfd0f2	-0.09366025
169	0xbc5ce5f0	-0.013482556
170	0xbd00585c	-0.031334266
171	0x3e71a888	0.23599446
172	0x3be27180	0.006910503
173	0xbd4f2a1c	-0.050577268
174	0xbe524ed1	-0.20537879
175	0xbe653fb0	-0.22387576
176	0x3d871b9c	0.06597063
177	0xbe14e2bb	-0.14539616
178	0x3d049258	0.032366127
179	0xbe11541c	-0.14192241
180	0xbe6a4e5c	-0.22881454
181	0xbda28866	-0.07936172
182	0x3e1c45d0	0.15261006
183	0xbe4e9d9c	-0.2017731
184	0xbe17183e	-0.14755341
185	0xbda47ad0	-0.08031237
186	0x3e3ceb46	0.18449125
187	0x3dcfea78	0.10152143
188	0xbe52cab2	-0.20585135
189	0x3e3d1a1e	0.18466994
190	0xbdebfe50	-0.11523116
191	0x3d1d44b0	0.038395584
192	0x3d61bb28	0.055110127
193	0x3bc5a080	0.006031096
194	0xbe7bb372	-0.24580172

bias f4 [13]
0	0x3e777ac0	0.24167919
1	0x3df4b3cc	0.11948356
2	0xbe6e6f59	-0.23284663
3	0xbd5ac780	-0.053412914
4	0xbe0cc87c	-0.13748354
5	0x3da17d24	0.07885197
6	0xbd83d914	-0.06437889
7	0xbe7be70b	-0.24599855
8	0xbe5dbe47	-0.21654616
9	0x3e28c704	0.16482168
10	0x3e07041a	0.13185158
11	0x3e74a392	0.23890522
12	0xbe526c2e	-0.2054908

weight f4 [57, 13, 2, 3]
0	0xbdaf1d80	-0.085505486
1	0xbdc6b4f2	-0.09702481
2	0xbd8b6a14	-0.06807342
3	0x3b52b860	0.0032153353
4	0xbdc8b863	-0.09800794
5	0x3d9c2437	0.07624095
6	0x3d86d08b	0.06582745
7	0xbd1f340e	-0.038868003
8	0x3d064572	0.032781072
9	0x3c9373dc	0.017999582
10	0x3d02bc72	0.031917997
11	0x3da79d91	0.0818435
12	0x3d9013b3	0.07035007
13	0x3d0ecfce	0.034866147
14	0xbdd7682a	-0.105179146
15	0x3acb5440	0.0015512779
16	0x3d17718a	0.036973514
17	0xbdb5e901	-0.088823326
18	0x3d224bc6	0.039623044
19	0x3b1cdca0	0.0023935214
20	0xbdcdde46	-0.10052161
21	0x3c6d4278	0.014481179
22	0xbdd146f6	-0.10218613
23	0x3daead1f	0.08529114
24	0xbd680302	-0.056643493
25	0xbdd0fd54	-0.102045685
26	0xbcfd5494	-0.030924119
27	0xbcb75168	-0.022377685
28	0x3d662aee	0.056193285
29	0xbdbcfe1b	-0.09228154
30	0xbbd69df0	-0.0065495893
31	0x3cfd6864	0.030933566
32	0x3dd9e9cd	0.10640297
33	0xbdd3aa85	-0.103352584
34	0x3db288e7	0.08717518
35	0x3d837a71	0.06419838
36	0xbaa5c940	-0.0012648478
37	0x3d6a38fe	0.05718326
38	0x3d63b1be	0.05558943
39	0x3d889897	0.06669729
40	0x3cf38fdc	0.029731683
41	0x3de7ba25	0.11314801
42	0x3cde29cc	0.02711954
43	0xbd4a1990	-0.049340785
44	0xbd40d0e2	-0.047074206
45	0x3d95adcd	0.073085405
46	0x3b887c40	0.0041652024
47	0xbdc20b30	-0.0947479
48	0x3dba0601	0.090831764
49	0xbbbd7000	-0.0057811737
50	0xbd2d095a	-0.042245246
51	0xbd545b48	-0.051844865
52	0xbdd53059	-0.10409612
53	0xbc548ee8	-0.012973525
54	0x3d4816b2	0.04884977
55	0x3dd4e383	0.10394957
56	0x3d0ee07e	0.03488206
57	0x3c854d0c	0.01627209
58	0xbd434662	-0.047674544
59	0xbc9c8ae0	-0.01910919
60	0x3d73a102	0.05947972
61	0xbddff1aa	-0.10934766
62	0x3dd0439d	0.10169146
63	0x3d954213	0.07287993
64	0xbc25b978	-0.01011502
65	0x3ddf5a09	0.10905845
66	0xbcfed0c0	-0.0311054
67	0x3abb1dc0	0.0014275834
68	0xbde06ce0	-0.10958266
69	0x3d791cae	0.060818367
70	0x3d82156d	0.06351743
71	0xbda1348c	-0.07871351
72	0x3da30c65	0.079613484
73	0xbd1af420	-0.037830472
74	0xbdc6b384	-0.09702209
75	0xbc2a6058	-0.010398947
76	0x3d8fcd23	0.070215486
77	0xbd410284	-0.04712154
78	0xbd1d084a	-0.038337983
79	0x3b585280	0.0033008158
80	0xbd344632	-0.044012256
81	0xbdb8e027	-0.09027129
82	0xbdbe0c1a	-0.09279652
83	0x3d29e276	0.041475736
84	0xbd69b3b8	-0.05705616
85	0x3d7594ca	0.05995635
86	0xbc246978	-0.010034911
87	0x3d36cd4e	0.044629388
88	0x3dce9fc1	0.100890644
89	0x3c17d300	0.009266615
90	0x3d848309	0.064703055
91	0xbd9a2944	-0.07527402
92	0x3d984f43	0.07436993
93	0x3cdef6ac	0.027217232
94	0xbcab523c	-0.020913236
95	0x3d67bf0e	0.05657869
96	0xbddb5892	-0.10710253
97	0x3d8f544d	0.06998501
98	0xbdc9bc73	-0.09850397
99	0x3d75ff2e	0.06005781
100	0xbd2c50b4	-0.042069152
101	0x3dd75189	0.105135985
102	0xbd96e618	-0.07368106
103	0x3d95f513	0.07322135
104	0xbbdb53d0	-0.006693341
105	0xbb3785c0	-0.0028003305
106	0x3c74f388	0.0149506405
107	0x3de4af13	0.11166205
108	0xbd26d70c	-0.04073243
109	0x3c6ffd38	0.014647774
110	0xbdb51ada	-0.08843012
111	0xbcfa8578	-0.030581221
112	0x3dbfbd69	0.09362299
113	0xbd374afa	-0.044749238
114	0x3c829fe4	0.015945382
115	0xbdad8c2c	-0.08474001
116	0x3c22a9d0	0.009928182
117	0x3d04bff6	0.03240963
118	0x3c805c8c	0.01566913
119	0xbd9a3454	-0.07529512
120	0x3d9d01f9	0.07666392
121	0x3c859ef4	0.016311146
122	0xbd8a3622	-0.06748606
123	0x3de69127	0.11258154
124	0xbd80d90a	-0.06291397
125	0xbddff47b	-0.10935303
126	0x3d9732d9	0.07382745
127	0x3d72f19a	0.05931244
128	0xbdab804e	-0.083740816
129	0x3c1c8f28	0.0095556155
130	0x3d602796	0.054725252
131	0x3d80729f	0.06271862
132	0x3dd5d977	0.10441869
133	0x3db796bb	0.089642964
134	0xbc36e400	-0.011162758
135	0xbb8063f0	-0.0039181635
136	0x3de0995d	0.10966752
137	0x3db62b5d	0.0889499
138	0xbda972d0	-0.08273852
139	0xbdb9a0af	-0.09063851
140	0x3d885a35	0.066578306
141	0x3d46f066	0.048569106
142	0xbd6f6750	-0.058448136
143	0xbccfe580	-0.025377989
144	0xbc8bf1e4	-0.017083116
145	0xbd6e5b63	-0.058192622
146	0xbd087e44	-0.03332354
147	0x3d8b4e29	0.06802017
148	0x3dcc9219	0.099888034
149	0x3d698842	0.05701471
150	0xbd2a198c	-0.04152827
151	0xbdc1809c	-0.094483584
152	0xbd918966	-0.07106285
153	0x3dbcb705	0.09214596
154	0x3d1be426	0.038059376
155	0xbd9c3da0	-0.076289415
156	0xbd9bd7ea	-0.07609542
157	0xbcf6e138	-0.03013669
158	0x3d252f1e	0.040328138
159	0x3d0346ee	0.032050066
160	0x3c93e5a4	0.018053837
161	0x3d014336	0.031558238
162	0xbdbd2fa4	-0.09237602
163	0xbccbc7cc	-0.024875544
164	0x3d2f60a6	0.04281678
165	0xbbf68540	-0.007523209
166	0x3d5b16be	0.053488486
167	0xbbe08500	-0.0068517923
168	0x3de0950f	0.10965931
169	0xb8052800	-3.1746924e-05
170	0x3c73c828	0.014879264
171	0x3d4adb6e	0.04952567
172	0xbce20bcc	-0.027593516
173	0x3d2a538e	0.04158359
174	0x3b820bc0	0.003968686
175	0x3d044dfa	0.032300927
176	0x3d67b17e	0.056565754
177	0x3d3decca	0.046368398
178	0x3ca73694	0.020411767
179	0x3d9c673d	0.07636879
180	0x3d0e0c52	0.03467972
181	0xbaa70980	-0.001274392
182	0xbcb952dc	-0.022622518
183	0x3da3b863	0.07994153
184	0x3b9d7ed0	0.004806377
185	0xbd2d8086	-0.042358898
186	0xbd53016d	-0.05151503
187	0x3b80bca0	0.003928736
188	0x3ddff127	0.10934668
189	0xbda33d19	-0.07970638
190	0xbd4fee74	-0.050764516
191	0x3d15b47a	0.03654907
192	0xbce7fa50	-0.0283176
193	0x3dd218ad	0.10258613
194	0x3c6ffba8	0.014647402
195	0x3d3c3aba	0.045954444
196	0x3de5df1b	0.112241946
197	0xbdd8da2d	-0.10588489
198	0xbdb27bcf	-0.08715021
199	0x3d08dcde	0.03341376
200	0xbda280f8	-0.07934755
201	0x3ccd24e4	0.025042005
202	0x3de708bb	0.11280962
203	0x3d1c465e	0.038153045
204	0x3d8299c3	0.06376984
205	0x3ddf9cfd	0.10918615
206	0xbde73e8b	-0.11291226
207	0x3d1e491a	0.038643934
208	0xbdbc07b2	-0.09181155
209	0x3c5b7f58	0.01339706
210	0x3d5d1506	0.053975128
211	0xbcd55adc	-0.026044302
212	0xbd86ebb2	-0.06587924
213	0x3daf590f	0.085619085
214	0xba2aa080	-0.0006508902
215	0x3d50170a	0.05080322
216	0xbcdfe694	-0.027331628
217	0xbd0dcf48	-0.034621507
218	0x3de34455	0.11097018
219	0xbdb3ad14	-0.087732464
220	0xbd2bcd3c	-0.041943774
221	0x3de131df	0.1099584
222	0x3d1a961a	0.037740804
223	0x3c30f208	0.010799892
224	0x3daa644b	0.083199106
225	0x3d74ec26	0.05979552
226	0x3d572142	0.05252195
227	0xbdc78af6	-0.097433016
228	0x3d92321f	0.07138466
229	0xbd8f4f72	-0.06997575
230	0xbd5ff618	-0.054678053
231	0x3d39917e	0.045304768
232	0xbcf6beac	-0.030120216
233	0x3dbde3a7	0.09271937
234	0x3d8bdb01	0.06828881
235	0xbdd4f2c0	-0.103978634
236	0xbd882dd2	-0.066493645
237	0xbd40b2fa	-0.047045685
238	0x3d9f22d1	0.077703126
239	0xbd85be14	-0.06530395
240	0x3daddaff	0.08489036
241	0x39214e00	0.00015383214
242	0xbb401b80	-0.0029313266
243	0x3dbaa50f	0.09113514
244	0x3d75133e	0.059832804
245	0xbd4a7400	-0.049427032
246	0xbdb1dea0	-0.086850405
247	0xbdd96b1c	-0.106161326
248	0xbcbc30cc	-0.022972487
249	0xbd0d9b72	-0.034572072
250	0xbd2c5e94	-0.042082384
251	0xbd328240	-0.043581247
252	0xbda72eee	-0.08163248
253	0x3d8d8799	0.06910629
254	0x3d401cea	0.046902575
255	0xbcc79dc8	-0.024367228

bias f4 [57]
0	0x3d4a9d5a	0.04946647
1	0xbd6165ac	-0.055028602
2	0x3dd83a2f	0.10557973
3	0x3d97e997	0.074176006
4	0xbde35706	-0.11100583
5	0xbdd21a73	-0.10258951
6	0xbdcf552f	-0.10123669
7	0x3c57d9a8	0.013174452
8	0xbb327f20	-0.0027236417
9	0xbdc0a3ba	-0.09406228
10	0xbcb52cac	-0.022116028
11	0x3dae7bf5	0.08519737
12	0x3dda5517	0.10660761
13	0x3ce02a14	0.027363814
14	0x3de23745	0.11045698
15	0xbdb1501a	-0.08657856
16	0xbdcd9d42	-0.1003976
17	0xbd401944	-0.046899095
18	0x3cb0c144	0.021576531
19	0x3dc893ff	0.09793853
20	0x3cf07efc	0.029357426
21	0x3dc6e5e5	0.09711818
22	0xbca7a01c	-0.020462088
23	0xbd86cdd2	-0.06582226
24	0x3c2a7e18	0.01040604
25	0x3c045188	0.008076079
26	0x3ba21770	0.0049466416
27	0xbdc0cecd	-0.09414444
28	0x3d6b07b2	0.057380386
29	0x3ca9afcc	0.02071371
30	0xbdc871f4	-0.0978736
31	0xbcc30584	-0.023806341
32	0xbd8b189b	-0.067918025
33	0x3d21a0ae	0.039459877
34	0xbd934074	-0.07190028
35	0xbdc5b564	-0.09653738
36	0x3bd40a80	0.0064709783
37	0x3d12bdba	0.03582547
38	0x3db00b69	0.08595926
39	0x3c725058	0.014789663
40	0x3bc3d250	0.005975999
41	0x3d2ffa0e	0.04296308
42	0x3d928de7	0.07155972
43	0x3dbc352d	0.0918983
44	0xbd28aa00	-0.04117775
45	0x3ddbdbdf	0.107352965
46	0xbd661c4c	-0.05617933
47	0x3d30c8a2	0.04316009
48	0xbdc87c2e	-0.097893104
49	0x3ca0abd4	0.019613184
50	0x3db36837	0.08760112
51	0x3d899ce1	0.067193754
52	0x3dbe1f13	0.09283271
53	0xbdcc2446	-0.09967856
54	0x3caf0e54	0.021369137
55	0x3d50091e	0.050789945
56	0x3cfe444c	0.031038426

weight f4 [250, 57, 1, 1]
0	0x3d72fc5c	0.0593227
1	0xbdea5aa2	-0.11443068
2	0x3ddec0ec	0.10876641
3	0x3d6c9d08	0.057766944
4	0x3dc96a1e	0.09834693
5	0xbdf5723e	-0.119846806
6	0xbd10b686	-0.035330318
7	0xbdb31d68	-0.08745843
8	0x3dfa76a0	0.12229657
9	0x3dd3ba78	0.103383005
10	0x3b335a00	0.0027366877
11	0x3a753200	0.0009353459
12	0xbdf4a0c0	-0.11944723
13	0x3df60e84	0.120144874
14	0x3d807b16	0.06273477
15	0x3ca5d708	0.020244136
16	0xbd3f8712	-0.046759672
17	0xbd92d1a0	-0.07168889
18	0x3d858440	0.06519365
19	0xbd462ccc	-0.048382565
20	0xbd4b61e8	-0.049653918
21	0xbd933440	-0.071877
22	0xbd3d8292	-0.0462671
23	0xbdc4cfa3	-0.09609916
24	0xbd603040	-0.054733515
25	0xbd6d642e	-0.057956867
26	0xbe05efa7	-0.13079701
27	0xbdc996f3	-0.098432444
28	0x3d2dc230	0.04242152
29	0x3dfdef70	0.12399185
30	0xbd2b5c94	-0.041836336
31	0xbcbc8fc0	-0.023017764
32	0x37d58000	2.5451183e-05
33	0xbbdab8a0	-0.006674841
34	0x3d10c984	0.03534843
35	0x3d8de9c4	0.06929353
36	0xbdc8568e	-0.09782134
37	0x3d077edc	0.033079967
38	0xbdec4d30	-0.1153816
39	0x3ce86888	0.028370157
40	0xbdcd7008	-0.10031134
41	0xbd3ac3ca	-0.045596875
42	0xbd8a5290	-0.06754029
43	0xbd99facc	-0.07518539
44	0x3d1e162c	0.038595363
45	0x3e00af32	0.12566832
46	0x3cca1028	0.024665907
47	0x3da4c428	0.08045226
48	0x3df4fa9c	0.119618624
49	0x3df98af8	0.12184709
50	0x3d5c6ff0	0.05381769
51	0x3d313e0c	0.043272063
52	0x3d76ee74	0.060286
53	0x3afe9180	0.0019422024
54	0xbd68fd5c	-0.056882247
55	0xbb5e3c40	-0.0033910424
56	0x3d35480c	0.044258162
57	0x3dee2596	0.11628263
58	0x3dbe1250	0.092808366
59	0xbdba75eb	-0.09104522
60	0x3d882b18	0.066488445
61	0xbbd36ec0	-0.0064524114
62	0xbd799b90	-0.06093937
63	0x3dc183aa	0.09448941
64	0x3dbbe1c2	0.09173919
65	0xbdb3f0d8	-0.08786172
66	0xbb8efe80	-0.004363835
67	0xbd61968a	-0.055075206
68	0x3db6458c	0.08899984
69	0x3dbcd5ba	0.092204526
70	0xbdb36f23	-0.08761432
71	0xbd5cea1e	-0.05393421
72	0xbd0fadc4	-0.035077825
73	0x3ddbfeb2	0.10741939
74	0xbdc1676e	-0.09443556
75	0xbdb2f3d7	-0.08737915
76	0xbdbbf57c	-0.09177682
77	0xbdd16d80	-0.102259636
78	0xbe06f90a	-0.13180938
79	0x3e06284e	0.13101313
80	0xbba65e20	-0.0050771385
81	0xbe036f3c	-0.12835401
82	0x3dfe98ac	0.124314636
83	0x3dd4a790	0.103835225
84	0x3d4cba4c	0.049982354
85	0xbbe79020	-0.0070667416
86	0xbc2dba08	-0.010603435
87	0xbdc8cebb	-0.09805056
88	0x3d099870	0.03359264
89	0x3da774f8	0.08176607
90	0x3db2165a	0.086956695
91	0x3cddd120	0.027077258
92	0x3d0d0d0c	0.03443627
93	0xbc22ae58	-0.009929262
94	0x3d769250	0.06019813
95	0xbcce1d3c	-0.025160424
96	0xbd697fd0	-0.057006657
97	0xbdc3d204	-0.09561542
98	0x3d44fa80	0.048090458
99	0xbddec42a	-0.10877259
100	0x3d7dd83c	0.061973795
101	0x3c280d40	0.010257065
102	0xba488800	-0.000764966
103	0x3db44118	0.08801478
104	0x3d46bb94	0.048518732
105	0x3dbed414	0.093177944
106	0xbdb0e6ae	-0.08637749
107	0x3dd7078c	0.10499486
108	0xbd084c74	-0.033276036
109	0x3dd0f9f0	0.10203922
110	0xbdc09aba	-0.09404512
111	0xbd0a3a3e	-0.03374695
112	0xbca1cab8	-0.019749984
113	0x3d01c22c	0.031679317
114	0xbdfcffd1	-0.123534806
115	0x3df426e4	0.1192148
116	0xbdf44d89	-0.11928851
117	0xbdd906d8	-0.105970085
118	0xbdd9ea4e	-0.10640393
119	0xbd109b12	-0.035304137
120	0xbe034f36	-0.12823185
121	0x3bed6a60	0.007245347
122	0x3e01c266	0.12671813
123	0x3d4b28fc	0.049599633
124	0xbc74c818	-0.014940284
125	0x3dee4e6e	0.11636053
126	0xbdf12684	-0.117749244
127	0xbdb239e6	-0.087024495
128	0x3da5a952	0.08088936
129	0x3d45f328	0.048327595
130	0xbbc15b60	-0.0059007853
131	0x3d5469a0	0.051858544
132	0x3dc4605a	0.0958869
133	0xbd3e0ad6	-0.046397053
134	0x3d86f672	0.065899745
135	0x3dba7148	0.09103638
136	0xbb034380	-0.0020029247
137	0x3d8ba414	0.06818405
138	0xbdae1461	-0.08499981
139	0x3cf113c8	0.029428378
140	0xbcdf8ee4	-0.027289815
141	0x3c739700	0.014867544
142	0x3d3deb80	0.04636717
143	0xbb8949a0	-0.004189685
144	0x3d0379d4	0.032098606
145	0xbda9b0d4	-0.082856804
146	0xbe04590f	-0.12924598
147	0xbdd992f0	-0.10623729
148	0x3dc24784	0.09486297
149	0x3d9b7742	0.07591106
150	0x3d3b4074	0.045715764
151	0xbdbf742c	-0.0934833
152	0xbca5d24c	-0.020241879
153	0xbdc29313	-0.095007084
154	0xbdac54ba	-0.08414598
155	0xbe041eec	-0.12902421
156	0xbb911c60	-0.0044284314
157	0xbcddab08	-0.027059093
158	0xbb693a80	-0.0035587847
159	0x3c4e0ca0	0.012576252
160	0xbd79394c	-0.06084566
161	0x3ca37e50	0.019957691
162	0x3d44ebac	0.048076317
163	0x3b45de00	0.0030192137
164	0xbdeffdbf	-0.1171832
165	0x3c3ff770	0.011716709
166	0xbd79b020	-0.06095898
167	0x3d3b4938	0.045724124
168	0xbccf57a4	-0.025310345
169	0xbd92700a	-0.07150276
170	0xbddbe9ea	-0.10737975
171	0x3d16b160	0.03679025
172	0xbcde0570	-0.027102202
173	0x3dc4533e	0.0958619
174	0xbd2d4544	-0.042302385
175	0xbcdab154	-0.026695885
176	0x3dbbb606	0.091655776
177	0x3d7ec884	0.062202945
178	0x3dd2aa0a	0.102863386
179	0x3c925420	0.01786238
180	0x3db7bbf2	0.089713946
181	0xbdcb59c6	-0.09929232
182	0x3df24790	0.11830056
183	0x3e00901c	0.12554973
184	0xbe01c212	-0.12671688
185	0x3d6cf4e0	0.05785072
186	0xbd62abee	-0.055339746
187	0xbd5be252	-0.053682633
188	0x3d3f52b4	0.04670973
189	0xbd13f7b4	-0.0361249
190	0x3e06d914	0.13168746
191	0x3bcd2000	0.006259918
192	0x3dbf9ac8	0.09355694
193	0xbde4f8c4	-0.11180261
194	0xbd6c80f4	-0.057740167
195	0x3d86f5f6	0.06589882
196	0xbe00f4a8	-0.12593329
197	0xbd33e5e4	-0.043920413
198	0x3da202d6	0.07910697
199	0x3d80cb3a	0.062887624
200	0x3d6b67b8	0.05747196
201	0xbc1b8a28	-0.009493388
202	0x3d70c218	0.058778852
203	0xbdf9d80f	-0.12199413
204	0x3cbb8c68	0.0228941
205	0xbdf8263c	-0.12116668
206	0xbdd5885e	-0.104264006
207	0x3d9fbf2a	0.078001335
208	0x3d0857bc	0.033286795
209	0xbdc1f832	-0.094711676
210	0x3dedfd66	0.116205975
211	0xbdf9f86a	-0.12205584
212	0x3e06a62c	0.13149327
213	0x3d81f4b6	0.06345503
214	0xbc3f15d0	-0.011662915
215	0xbd1cd30e	-0.038287215
216	0xbdc59392	-0.096472874
217	0x3ded1aea	0.11577399
218	0xbde9c300	-0.114141464
219	0xbdda87f1	-0.1067046
220	0x3d58cbd8	0.052928776
221	0xbdaf8d44	-0.08571866
222	0x3dc8f74e	0.098127946
223	0x3de159c6	0.11003451
224	0xbdde958c	-0.108683676
225	0x3d2ef97c	0.042718396
226	0x3cf67ff0	0.030090302
227	0x3d999c24	0.075004846
228	0xbcdc57f4	-0.026897408
229	0x3e01879a	0.12649384
230	0xbda74110	-0.081667066
231	0x3dc698b6	0.09697096
232	0x3d2857c8	0.04109934
233	0xbca4390c	-0.020046733
234	0x3d95f50a	0.07322128
235	0x3d4c20fc	0.049836144
236	0xbda52790	-0.080641866
237	0xbd989722	-0.07450701
238	0xbd777f88	-0.060424358
239	0x3d8112e6	0.06302433
240	0xbdf3a1a9	-0.118960686
241	0x3dc606c0	0.09669256
242	0x3dc265c8	0.094920695
243	0x3de2d5e6	0.11075954
244	0x3c344590	0.011002913
245	0xbbf26040	-0.007396728
246	0xbdc014a2	-0.093789354
247	0xbcf2fffc	-0.029663078
248	0x3d2698ec	0.04067318
249	0x3ca3dbc8	0.02000226
250	0x3df90730	0.12159574
251	0x3de839f2	0.11339177
252	0x3c76a2b0	0.015053436
253	0x3d3961c4	0.045259252
254	0xbc976db0	-0.01848492
255	0x3ded045c	0.11573097

bias f4 [250]
0	0xbc59d208	-0.013294704
1	0x3d914322	0.07092883
2	0x3dc45416	0.095863506
3	0x3e064cbc	0.1311521
4	0xbdf495b7	-0.11942618
5	0x3d0ee3f0	0.034885347
6	0xbcb7354c	-0.022364281
7	0xbd7b68c0	-0.061379194
8	0x3c9c1328	0.019052103
9	0x3df0c410	0.11756146
10	0x3c8d9b98	0.017286107
11	0xbd9f0222	-0.07764079
12	0xbd5e36be	-0.054251425
13	0x3c687a10	0.014189258
14	0xbc7062c0	-0.014671981
15	0xbc9576b8	-0.018245086
16	0x3b05ffc0	0.0020446628
17	0x3dd299d2	0.10283245
18	0x3e04c782	0.12966731
19	0x3d17dff0	0.037078798
20	0xbd60ac46	-0.054851793
21	0xbd7ee32e	-0.062228374
22	0x3de4484e	0.111466035
23	0x3d8a0312	0.06738867
24	0x3ce17200	0.02752018
25	0x3e0503aa	0.12989679
26	0xbb7ba600	-0.0038398504
27	0xbdb289e5	-0.087177075
28	0xbdff1306	-0.124548
29	0x3d29efe8	0.041488558
30	0x3de8a1ae	0.11358963
31	0x3dac59b2	0.084155455
32	0xbca7f674	-0.02050326
33	0xbda9a648	-0.08283669
34	0x3ce96d70	0.028494567
35	0x3c880b98	0.01660709
36	0xbda4a977	-0.08040135
37	0xbd89fc53	-0.0673758
38	0xbcccf6d8	-0.025020048
39	0xbd94d821	-0.07267786
40	0xbb09be40	-0.002101794
41	0xbd8ec7e9	-0.069717236
42	0x3d6df620	0.05809605
43	0xbdacc280	-0.084355354
44	0xbb6eb740	-0.0036425143
45	0x3d43ad70	0.047772825
46	0x3df09c16	0.11748521
47	0xbdf49cd3	-0.11943974
48	0xbc7f41f0	-0.015579686
49	0x3dee4006	0.11633305
50	0xbd568c9e	-0.052380197
51	0xbc3b4808	-0.011430748
52	0xbd59c12a	-0.05316273
53	0x3dcc1dda	0.09966631
54	0x3d8cdb7e	0.06877802
55	0x3c0fd7a0	0.008779436
56	0x3d419794	0.047263697
57	0xbd817e7a	-0.063229516
58	0x3c245930	0.01003103
59	0xbcf0e500	-0.02940607
60	0xbd058314	-0.03259571
61	0x3dea46f4	0.114393145
62	0x3c9d3100	0.019188404
63	0x3d732e44	0.059370294
64	0xbcee07b4	-0.029056408
65	0x3e072e8c	0.1320135
66	0x3d242204	0.040071502
67	0xbdb3af80	-0.08773708
68	0xbd054362	-0.032534964
69	0xbd8dd79d	-0.069258906
70	0xbc9a1644	-0.018809445
71	0x3d87b384	0.06626037
72	0xbdddca50	-0.10829604
73	0xbdfa35fa	-0.122173265
74	0xbd86f579	-0.06589789
75	0xbdb14864	-0.086563855
76	0x3d8eb48c	0.0696803
77	0x3c6d9a60	0.014502138
78	0xbc628900	-0.013826609
79	0xbdc0a5d8	-0.09406632
80	0xbaf3de00	-0.001860559
81	0x3dd771a0	0.10519719
82	0x3deb964e	0.11503278
83	0x3d673a70	0.056452215
84	0xbd687a44	-0.056757227
85	0x3d11f700	0.03563595
86	0xbdb16777	-0.086623125
87	0xbdc5efd6	-0.09664886
88	0x3ccb1638	0.024790868
89	0xbd55fa30	-0.05224055
90	0xbdfe5e0f	-0.12420284
91	0xbcad2234	-0.021134473
92	0x3ca758d8	0.020428106
93	0xbc9f5fe0	-0.019454896
94	0x3e04a352	0.12952927
95	0xbd081ae2	-0.033228762
96	0xbd8d54d3	-0.069009446
97	0x3dce58ba	0.10075517
98	0x3d454c00	0.048168182
99	0xbda839ae	-0.082141265
100	0xbdacf60c	-0.08445367
101	0x3df6d1a4	0.120517045
102	0x3d5e7134	0.054307178
103	0x3debe22a	0.11517747
104	0xbdaa80fa	-0.083253816
105	0xbdb1c16d	-0.08679471
106	0xbd8351b5	-0.06412069
107	0x3e015354	0.12629443
108	0x3d221f0c	0.03958039
109	0xbd425958	-0.047448486
110	0xbdc03d2e	-0.09386669
111	0xbd92acc7	-0.07161861
112	0x3e043db2	0.1291416
113	0x3c944828	0.018100813
114	0x3df5f8e4	0.12010363
115	0xbd9ef0c6	-0.07760768
116	0x3d247b58	0.040156692
117	0x3d1f8f84	0.038955227
118	0x3dfdf8f4	0.12401
119	0x3d11c574	0.035588697
120	0x3caf41d8	0.021393701
121	0xbe06e173	-0.1317194
122	0x3ddb33aa	0.107032135
123	0x3b849960	0.004046604
124	0x3db4fffe	0.08837889
125	0xbdaf3f1e	-0.085569605
126	0xbdf7c76c	-0.120985836
127	0x3e058f88	0.13043034
128	0x3e04a410	0.1295321
129	0x3d6ca6a8	0.057776123
130	0xbe02ceb9	-0.12774171
131	0xbdbd2f18	-0.09237498
132	0xbc25fe30	-0.010131404
133	0x3e057c60	0.13035727
134	0xbce1e9f4	-0.027577378
135	0xbaa2c200	-0.0012417436
136	0xbd384a38	-0.044992656
137	0x3e04a0ac	0.12951916
138	0xbd8ffa36	-0.07030146
139	0xbdf8b154	-0.12143198
140	0x3c467050	0.012111738
141	0x3d951cb0	0.07280862
142	0x3e02ba70	0.12766433
143	0x3dc90f50	0.09817374
144	0xbd4ee738	-0.050513476
145	0xbcffa7c4	-0.031207927
146	0x3dded21c	0.10879919
147	0x3deb34ba	0.11484666
148	0xbdc1bba4	-0.09459618
149	0x3dcdfac6	0.10057597
150	0x3dffd8d4	0.124925286
151	0xbdbd9a68	-0.09257966
152	0x3d316a60	0.043314338
153	0xbdf35c7d	-0.11882875
154	0xbd36d364	-0.04463519
155	0xbdd68ce1	-0.10476089
156	0x3dc21040	0.09475756
157	0x3deebe08	0.11657339
158	0xbd212608	-0.03934291
159	0x3e0096f4	0.12557584
160	0xbdca06cc	-0.09864578
161	0x3cba5dc8	0.022749797
162	0x3d97dda2	0.0741532
163	0x3c691fe0	0.014228791
164	0x3d7258e4	0.059166804
165	0x3de4416a	0.11145289
166	0xbd9b8939	-0.075945325
167	0xbd8da404	-0.06916049
168	0x3d132150	0.03592044
169	0x3c9d14f8	0.019175038
170	0xbd5e832c	-0.054324314
171	0x3d648ac4	0.0557964
172	0x3ccd9888	0.025097147
173	0xbdcee7f5	-0.10102836
174	0x3db6205c	0.08892891
175	0xbdf5d4e9	-0.120035
176	0xbd9da538	-0.076975286
177	0x3db91bfa	0.09038539
178	0xbda38476	-0.07984249
179	0x3d090bb0	0.03345841
180	0x3dca804e	0.098877534
181	0x3deb1eae	0.11480461
182	0xbd9fad4e	-0.07796727
183	0xbdb6b7d2	-0.0892178
184	0x3dae08c8	0.08497769
185	0x3c8e82b8	0.017396316
186	0x3dd02b3e	0.10164498
187	0xbdf6fe82	-0.12060262
188	0xbd32da62	-0.043665297
189	0x3d46e43c	0.048557505
190	0x3c8b8cc0	0.017034888
191	0xbd59a7c4	-0.05313851
192	0xbdd215d3	-0.10258069
193	0xbde105d9	-0.109874435
194	0xbd22fcd6	-0.039791904
195	0x3d62d068	0.055374533
196	0xbd82d339	-0.06387944
197	0xbc77e3c0	-0.015129983
198	0x3d01810c	0.03161721
199	0x3e031234	0.12799913
200	0x3dcd2058	0.10015935
201	0xbd424ecc	-0.047438428
202	0x3dc99da2	0.09844519
203	0x3dd975b2	0.10618152
204	0xbdbebe97	-0.09313696
205	0xbcd51a68	-0.026013568
206	0x3d8c8af2	0.06862439
207	0xbd30b952	-0.043145485
208	0x3db1c112	0.08679403
209	0xbdf45459	-0.119301505
210	0x3d8cba5a	0.06871481
211	0x3d9976b6	0.074933454
212	0xbd582274	-0.052767232
213	0xbd0c9304	-0.034319893
214	0xbdcd548e	-0.10025893
215	0x3d26f810	0.040763915
216	0x3dd3aa90	0.103352666
217	0xbc5b3118	-0.013378404
218	0xbdc0ddae	-0.09417282
219	0x3df05e3c	0.11736724
220	0x3cc1df48	0.02366604
221	0xbd3f21e2	-0.046663173
222	0x3d3d2944	0.046181932
223	0xbd4991fa	-0.04921148
224	0xbc937664	-0.018000789
225	0xbdf706de	-0.12061857
226	0xbd8a92d3	-0.06766286
227	0xbdaef352	-0.085425034
228	0x3d857a7e	0.06517504
229	0xbdef9dec	-0.11700043
230	0x3e04fff4	0.12988263
231	0x3dc5e696	0.096631214
232	0xbd3fc620	-0.046819806
233	0x3a40b000	0.0007350445
234	0xbdef2d4e	-0.11678563
235	0xbbb82f20	-0.005620852
236	0x3d9a4e56	0.07534473
237	0x3d83cb5a	0.064352706
238	0xbc67be88	-0.014144547
239	0x3cef8158	0.02923648
240	0x3d073738	0.033011645
241	0x3d774db8	0.060376853
242	0x3de436c8	0.11143261
243	0xbdddffd3	-0.1083981
244	0x3d468108	0.048462898
245	0x3dea1d70	0.11431396
246	0xbc89e4d0	-0.01683274
247	0x3e02ae72	0.12761858
248	0xbd92aabe	-0.07161473
249	0x3d863528	0.065531075
